{"format": "torch", "nodes": [{"name": "conv1", "id": 140355021895280, "class_name": "GINConv(nn=Sequential(\n  (0): Linear(in_features=2, out_features=128, bias=True)\n  (1): ReLU()\n  (2): Linear(in_features=128, out_features=128, bias=True)\n  (3): ReLU()\n  (4): BatchNorm1d(128, eps=1e-05, momentum=0.1, affine=True, track_running_stats=True)\n))", "parameters": [["nn.0.weight", [128, 2]], ["nn.0.bias", [128]], ["nn.2.weight", [128, 128]], ["nn.2.bias", [128]], ["nn.4.weight", [128]], ["nn.4.bias", [128]]], "output_shape": [[14528, 128]], "num_parameters": [256, 128, 16384, 128, 128, 128]}, {"name": "convs.0", "id": 140355021895760, "class_name": "GINConv(nn=Sequential(\n  (0): Linear(in_features=128, out_features=128, bias=True)\n  (1): ReLU()\n  (2): Linear(in_features=128, out_features=128, bias=True)\n  (3): ReLU()\n  (4): BatchNorm1d(128, eps=1e-05, momentum=0.1, affine=True, track_running_stats=True)\n))", "parameters": [["nn.0.weight", [128, 128]], ["nn.0.bias", [128]], ["nn.2.weight", [128, 128]], ["nn.2.bias", [128]], ["nn.4.weight", [128]], ["nn.4.bias", [128]]], "output_shape": [[14528, 128]], "num_parameters": [16384, 128, 16384, 128, 128, 128]}, {"name": "convs.1", "id": 140355021865216, "class_name": "GINConv(nn=Sequential(\n  (0): Linear(in_features=128, out_features=128, bias=True)\n  (1): ReLU()\n  (2): Linear(in_features=128, out_features=128, bias=True)\n  (3): ReLU()\n  (4): BatchNorm1d(128, eps=1e-05, momentum=0.1, affine=True, track_running_stats=True)\n))", "parameters": [["nn.0.weight", [128, 128]], ["nn.0.bias", [128]], ["nn.2.weight", [128, 128]], ["nn.2.bias", [128]], ["nn.4.weight", [128]], ["nn.4.bias", [128]]], "output_shape": [[14528, 128]], "num_parameters": [16384, 128, 16384, 128, 128, 128]}, {"name": "convs.2", "id": 140355021866272, "class_name": "GINConv(nn=Sequential(\n  (0): Linear(in_features=128, out_features=128, bias=True)\n  (1): ReLU()\n  (2): Linear(in_features=128, out_features=128, bias=True)\n  (3): ReLU()\n  (4): BatchNorm1d(128, eps=1e-05, momentum=0.1, affine=True, track_running_stats=True)\n))", "parameters": [["nn.0.weight", [128, 128]], ["nn.0.bias", [128]], ["nn.2.weight", [128, 128]], ["nn.2.bias", [128]], ["nn.4.weight", [128]], ["nn.4.bias", [128]]], "output_shape": [[14528, 128]], "num_parameters": [16384, 128, 16384, 128, 128, 128]}, {"name": "convs.3", "id": 140355021865120, "class_name": "GINConv(nn=Sequential(\n  (0): Linear(in_features=128, out_features=128, bias=True)\n  (1): ReLU()\n  (2): Linear(in_features=128, out_features=128, bias=True)\n  (3): ReLU()\n  (4): BatchNorm1d(128, eps=1e-05, momentum=0.1, affine=True, track_running_stats=True)\n))", "parameters": [["nn.0.weight", [128, 128]], ["nn.0.bias", [128]], ["nn.2.weight", [128, 128]], ["nn.2.bias", [128]], ["nn.4.weight", [128]], ["nn.4.bias", [128]]], "output_shape": [[14528, 128]], "num_parameters": [16384, 128, 16384, 128, 128, 128]}, {"name": "lin1", "id": 140344625644544, "class_name": "Linear(in_features=
…
